…
To enable the following instructions: SSE4.1 SSE4.2 AVX AVX2 AVX512F FMA, in other operations, rebuild TensorFlow with the appropriate compiler flags.
2023-08-14 15:38:07.545819: I tensorflow/core/common_runtime/process_util.cc:146] Creating new thread pool with default inter op setting: 2. Tune using inter_op_parallelism_threads for best performance.
Model: "sequential"
_________________________________________________________________
 Layer (type)                Output Shape              Param #   
=================================================================
 conv2d (Conv2D)             (None, 75, 1989, 32)      2112      
                                                                 
 conv2d_1 (Conv2D)           (None, 71, 1977, 32)      66592     
                                                                 
 max_pooling2d (MaxPooling2D  (None, 35, 494, 32)      0         
 )                                                               
                                                                 
 conv2d_2 (Conv2D)           (None, 33, 482, 64)       79936     
                                                                 
 conv2d_3 (Conv2D)           (None, 31, 470, 64)       159808    
                                                                 
 max_pooling2d_1 (MaxPooling  (None, 15, 117, 64)      0         
 2D)                                                             
                                                                 
 conv2d_4 (Conv2D)           (None, 13, 109, 128)      221312    
                                                                 
 conv2d_5 (Conv2D)           (None, 11, 101, 128)      442496    
                                                                 
 max_pooling2d_2 (MaxPooling  (None, 5, 50, 128)       0         
 2D)                                                             
                                                                 
 flatten (Flatten)           (None, 32000)             0         
                                                                 
 dense (Dense)               (None, 64)                2048064   
                                                                 
 dense_1 (Dense)             (None, 64)                4160      
                                                                 
 dense_2 (Dense)             (None, 5)                 325       
                                                                 
=================================================================
Total params: 3,024,805
Trainable params: 3,024,805
Non-trainable params: 0
_________________________________________________________________
2023-08-14 15:38:08.279499: I tensorflow/core/common_runtime/executor.cc:1197] [/device:CPU:0] (DEBUG INFO) Executor start aborting (this does not indicate an error and you can ignore this message): INVALID_ARGUMENT: You must feed a value for placeholder tensor 'Placeholder/_0' with dtype int32
…
