…
2023-08-09 21:48:52.571748: W tensorflow/compiler/jit/mark_for_compilation_pass.cc:1412] (One-time warning): Not using XLA:CPU for cluster because envvar TF_XLA_FLAGS=--tf_xla_cpu_global_jit was not set.  If you want XLA:CPU, either set that envvar, or use experimental_jit_scope to enable XLA:CPU.  To confirm that XLA is active, pass --vmodule=xla_compilation_cache=1 (as a proper command-line flag, not via TF_XLA_FLAGS) or set the envvar XLA_FLAGS=--xla_hlo_profile.
Model: "sequential"
_________________________________________________________________
Layer (type)                 Output Shape              Param #   
=================================================================
conv2d (Conv2D)              (None, 77, 1999, 16)      160       
_________________________________________________________________
conv2d_1 (Conv2D)            (None, 75, 1997, 16)      2320      
_________________________________________________________________
max_pooling2d (MaxPooling2D) (None, 75, 998, 16)       0         
_________________________________________________________________
conv2d_2 (Conv2D)            (None, 73, 996, 32)       4640      
_________________________________________________________________
conv2d_3 (Conv2D)            (None, 71, 994, 32)       9248      
_________________________________________________________________
max_pooling2d_1 (MaxPooling2 (None, 35, 497, 32)       0         
_________________________________________________________________
conv2d_4 (Conv2D)            (None, 33, 495, 10)       2890      
_________________________________________________________________
conv2d_5 (Conv2D)            (None, 31, 493, 10)       910       
_________________________________________________________________
max_pooling2d_2 (MaxPooling2 (None, 15, 246, 10)       0         
_________________________________________________________________
flatten (Flatten)            (None, 36900)             0         
_________________________________________________________________
dense (Dense)                (None, 32)                1180832   
_________________________________________________________________
dense_1 (Dense)              (None, 5)                 165       
=================================================================
Total params: 1,201,165
Trainable params: 1,201,165
Non-trainable params: 0
_________________________________________________________________
Epoch 1/20
16/16 - 396s - loss: 102.2915 - mean_absolute_percentage_error: 125.0121 - val_loss: 11.1743 - val_mean_absolute_percentage_error: 89.3631
Epoch 2/20
16/16 - 355s - loss: 76.5224 - mean_absolute_percentage_error: 93.2961 - val_loss: 11.6958 - val_mean_absolute_percentage_error: 93.5947
…
