…
WARNING:tensorflow:From /home/cg457676/miniconda3/envs/EMRI_env/lib/python3.7/site-packages/tensorflow/python/ops/init_ops.py:1251: calling VarianceScaling.__init__ (from tensorflow.python.ops.init_ops) with dtype is deprecated and will be removed in a future version.
Instructions for updating:
Call initializer instance with the dtype argument instead of passing it to the constructor
Model: "sequential"
_________________________________________________________________
Layer (type)                 Output Shape              Param #   
=================================================================
conv2d (Conv2D)              (None, 75, 1999, 16)      256       
_________________________________________________________________
conv2d_1 (Conv2D)            (None, 71, 1997, 16)      3856      
_________________________________________________________________
max_pooling2d (MaxPooling2D) (None, 71, 998, 16)       0         
_________________________________________________________________
conv2d_2 (Conv2D)            (None, 67, 996, 32)       7712      
_________________________________________________________________
conv2d_3 (Conv2D)            (None, 63, 994, 32)       15392     
_________________________________________________________________
max_pooling2d_1 (MaxPooling2 (None, 31, 497, 32)       0         
_________________________________________________________________
conv2d_4 (Conv2D)            (None, 29, 495, 16)       4624      
_________________________________________________________________
conv2d_5 (Conv2D)            (None, 27, 493, 16)       2320      
_________________________________________________________________
max_pooling2d_2 (MaxPooling2 (None, 13, 246, 16)       0         
_________________________________________________________________
flatten (Flatten)            (None, 51168)             0         
_________________________________________________________________
dense (Dense)                (None, 128)               6549632   
_________________________________________________________________
dense_1 (Dense)              (None, 5)                 645       
=================================================================
Total params: 6,584,437
Trainable params: 6,584,437
Non-trainable params: 0
_________________________________________________________________
Traceback (most recent call last):
  File "./network.py", line 142, in <module>
    validation_data = valid_generator)
  File "/home/cg457676/miniconda3/envs/EMRI_env/lib/python3.7/site-packages/tensorflow/python/keras/engine/training.py", line 597, in fit
…
