…
2023-08-08 21:51:45.140114: W tensorflow/compiler/jit/mark_for_compilation_pass.cc:1412] (One-time warning): Not using XLA:CPU for cluster because envvar TF_XLA_FLAGS=--tf_xla_cpu_global_jit was not set.  If you want XLA:CPU, either set that envvar, or use experimental_jit_scope to enable XLA:CPU.  To confirm that XLA is active, pass --vmodule=xla_compilation_cache=1 (as a proper command-line flag, not via TF_XLA_FLAGS) or set the envvar XLA_FLAGS=--xla_hlo_profile.
Model: "sequential"
_________________________________________________________________
Layer (type)                 Output Shape              Param #   
=================================================================
conv2d (Conv2D)              (None, 75, 1999, 16)      256       
_________________________________________________________________
conv2d_1 (Conv2D)            (None, 71, 1997, 16)      3856      
_________________________________________________________________
max_pooling2d (MaxPooling2D) (None, 71, 998, 16)       0         
_________________________________________________________________
conv2d_2 (Conv2D)            (None, 67, 996, 32)       7712      
_________________________________________________________________
conv2d_3 (Conv2D)            (None, 63, 994, 32)       15392     
_________________________________________________________________
max_pooling2d_1 (MaxPooling2 (None, 31, 497, 32)       0         
_________________________________________________________________
conv2d_4 (Conv2D)            (None, 29, 495, 16)       4624      
_________________________________________________________________
conv2d_5 (Conv2D)            (None, 27, 493, 16)       2320      
_________________________________________________________________
max_pooling2d_2 (MaxPooling2 (None, 13, 246, 16)       0         
_________________________________________________________________
flatten (Flatten)            (None, 51168)             0         
_________________________________________________________________
dense (Dense)                (None, 128)               6549632   
_________________________________________________________________
dense_1 (Dense)              (None, 5)                 645       
=================================================================
Total params: 6,584,437
Trainable params: 6,584,437
Non-trainable params: 0
_________________________________________________________________
Epoch 1/100
Traceback (most recent call last):
  File "./network.py", line 135, in <module>
    validation_data = valid_generator)
  File "/home/cg457676/miniconda3/envs/EMRI_env/lib/python3.7/site-packages/tensorflow/python/keras/engine/training.py", line 1433, in fit_generator
…
