…
  1) binutils/2.38     2) numactl/2.0.14     3) zlib/1.2.12

The following have been reloaded with a version change:
  1) GCCcore/.11.3.0 => GCCcore/.9.3.0

[INFO] Module Python/3.9.6 loaded.

The following have been reloaded with a version change:
  1) binutils/2.38 => binutils/2.37     2) zlib/1.2.12 => zlib/1.2.11

[INFO] Module cuDNN/8.1.1.33-CUDA-11.2.1 loaded.
Mon Aug 21 12:08:37 CEST 2023
here
hi
Model: "sequential"
_________________________________________________________________
 Layer (type)                Output Shape              Param #   
=================================================================
 conv2d (Conv2D)             (None, 77, 1999, 16)      160       
                                                                 
 conv2d_1 (Conv2D)           (None, 75, 1997, 16)      2320      
                                                                 
 max_pooling2d (MaxPooling2D  (None, 37, 998, 16)      0         
 )                                                               
                                                                 
 conv2d_2 (Conv2D)           (None, 35, 996, 32)       4640      
                                                                 
 conv2d_3 (Conv2D)           (None, 33, 994, 32)       9248      
                                                                 
 max_pooling2d_1 (MaxPooling  (None, 16, 497, 32)      0         
 2D)                                                             
                                                                 
 conv2d_4 (Conv2D)           (None, 14, 495, 64)       18496     
                                                                 
 conv2d_5 (Conv2D)           (None, 12, 493, 64)       36928     
                                                                 
 max_pooling2d_2 (MaxPooling  (None, 6, 246, 64)       0         
 2D)                                                             
                                                                 
 flatten (Flatten)           (None, 94464)             0         
                                                                 
 dense (Dense)               (None, 64)                6045760   
                                                                 
 dense_1 (Dense)             (None, 64)                4160      
                                                                 
 dense_2 (Dense)             (None, 5)                 325       
                                                                 
=================================================================
Total params: 6,122,037
Trainable params: 6,122,037
Non-trainable params: 0
_________________________________________________________________
Epoch 1/40
Traceback (most recent call last):
  File "/rwthfs/rz/cluster/home/cg457676/EMRI_waveform/CNN/GPU_Network/./network.py", line 131, in <module>
…
