…
  1) GCCcore/.11.3.0 => GCCcore/.9.3.0

[INFO] Module Python/3.9.6 loaded.

The following have been reloaded with a version change:
  1) binutils/2.38 => binutils/2.37     2) zlib/1.2.12 => zlib/1.2.11

[INFO] Module cuDNN/8.1.1.33-CUDA-11.2.1 loaded.
Tue Aug 22 09:51:37 CEST 2023
start loading data
(2400, 79, 2001, 1)
end loading data
Dauer : 10:08 (min:sec)
Model: "sequential"
_________________________________________________________________
 Layer (type)                Output Shape              Param #   
=================================================================
 conv2d (Conv2D)             (None, 77, 1999, 16)      160       
                                                                 
 conv2d_1 (Conv2D)           (None, 75, 1997, 16)      2320      
                                                                 
 max_pooling2d (MaxPooling2D  (None, 37, 998, 16)      0         
 )                                                               
                                                                 
 conv2d_2 (Conv2D)           (None, 35, 996, 32)       4640      
                                                                 
 conv2d_3 (Conv2D)           (None, 33, 994, 32)       9248      
                                                                 
 max_pooling2d_1 (MaxPooling  (None, 16, 497, 32)      0         
 2D)                                                             
                                                                 
 conv2d_4 (Conv2D)           (None, 14, 495, 64)       18496     
                                                                 
 conv2d_5 (Conv2D)           (None, 12, 493, 64)       36928     
                                                                 
 max_pooling2d_2 (MaxPooling  (None, 6, 246, 64)       0         
 2D)                                                             
                                                                 
 conv2d_6 (Conv2D)           (None, 4, 244, 128)       73856     
                                                                 
 conv2d_7 (Conv2D)           (None, 2, 242, 128)       147584    
                                                                 
 max_pooling2d_3 (MaxPooling  (None, 1, 121, 128)      0         
 2D)                                                             
                                                                 
 flatten (Flatten)           (None, 15488)             0         
                                                                 
 dense (Dense)               (None, 128)               1982592   
                                                                 
 dense_1 (Dense)             (None, 128)               16512     
                                                                 
 dense_2 (Dense)             (None, 5)                 645       
                                                                 
=================================================================
Total params: 2,292,981
Trainable params: 2,292,981
Non-trainable params: 0
_________________________________________________________________
Epoch 1/40
75/75 - 10s - loss: 0.1427 - custom_loss: 1.3544 - val_loss: 0.1300 - val_custom_loss: 0.4608 - 10s/epoch - 136ms/step
…
