…
To enable the following instructions: SSE4.1 SSE4.2 AVX AVX2 AVX512F FMA, in other operations, rebuild TensorFlow with the appropriate compiler flags.
2023-08-12 22:31:38.023037: I tensorflow/core/common_runtime/process_util.cc:146] Creating new thread pool with default inter op setting: 2. Tune using inter_op_parallelism_threads for best performance.
Model: "sequential"
_________________________________________________________________
 Layer (type)                Output Shape              Param #   
=================================================================
 conv2d (Conv2D)             (None, 77, 1999, 16)      160       
                                                                 
 conv2d_1 (Conv2D)           (None, 75, 1997, 16)      2320      
                                                                 
 max_pooling2d (MaxPooling2D  (None, 75, 998, 16)      0         
 )                                                               
                                                                 
 conv2d_2 (Conv2D)           (None, 73, 996, 16)       2320      
                                                                 
 conv2d_3 (Conv2D)           (None, 71, 994, 16)       2320      
                                                                 
 max_pooling2d_1 (MaxPooling  (None, 35, 497, 16)      0         
 2D)                                                             
                                                                 
 conv2d_4 (Conv2D)           (None, 33, 495, 16)       2320      
                                                                 
 conv2d_5 (Conv2D)           (None, 31, 493, 16)       2320      
                                                                 
 max_pooling2d_2 (MaxPooling  (None, 15, 246, 16)      0         
 2D)                                                             
                                                                 
 flatten (Flatten)           (None, 59040)             0         
                                                                 
 dense (Dense)               (None, 32)                1889312   
                                                                 
 dense_1 (Dense)             (None, 5)                 165       
                                                                 
=================================================================
Total params: 1,901,237
Trainable params: 1,901,237
Non-trainable params: 0
_________________________________________________________________
2023-08-12 22:31:38.311764: I tensorflow/core/common_runtime/executor.cc:1197] [/device:CPU:0] (DEBUG INFO) Executor start aborting (this does not indicate an error and you can ignore this message): INVALID_ARGUMENT: You must feed a value for placeholder tensor 'Placeholder/_0' with dtype int32
…
